old_submission/code/models/qmix_agent.pth (torch, 24870 bytes, 6 tensors)

fc1.weight f4 [64, 15]
-0.16930029 -0.004260659 -0.22492279 -0.05167097 0.109095484 -0.18351978 0.16977158 0.026460469
-0.15884012 -0.021446437 0.017456055 0.22184208 -0.16268283 0.0664303 0.15093637 -0.1911341
0.16212332 -0.21347253 0.24574342 -0.09404822 -0.15607822 0.18437192 0.25027367 -0.14031196
-0.12478222 -0.15118973 0.10168922 0.20282814 -0.021216333 -0.115693614 0.025664032 0.010018557
0.107908934 -0.11198883 0.20550221 -0.2189551 -0.25361758 0.0033481717 0.1655392 0.25761625
0.18963242 0.2360053 -0.117508695 0.086922914 -0.15140617 0.08423698 0.00559178 -0.23993668
0.040355146 -0.027073741 -0.05009286 -0.03314568 0.16524082 -0.18618968 0.016210675 -0.063143
0.113283604 -0.12118386 -0.23567432 -0.24242185 -0.21536303 0.099211454 -0.012490675 -0.2494006
0.22031161 -0.20571265 -0.2160817 0.16639444 0.051900864 0.25390103 -0.0954286 0.22512019
-0.024320334 0.13844693 -0.19316208 0.04658857 -0.09758675 -0.18988062 -0.05255419 0.22708306
0.15268415 -0.16385998 -0.05109003 -0.23860575 -0.030757204 0.17762327 -0.010089561 0.18434557
0.24443957 -0.23207913 0.23841673 -0.22918227 0.18359616 -0.02357325 -0.054715484 -0.069373
-0.15132222 -0.22718172 -0.2329856 -0.10148801 -0.21709117 0.22512099 0.003111571 -0.16834965
-0.19776115 -0.13979465 0.1845119 -0.19245605 0.22531325 0.099918395 -0.11570449 0.16155216
0.1763815 -0.117715254 -0.14234191 0.19433701 0.012266934 -0.04717408 0.16833258 0.08619392
-0.03431481 -0.106579036 0.081022024 0.13174811 0.16036189 -0.16288891 -0.05828418 0.011843741
0.16186443 -0.046325028 -0.13869646 0.24425623 0.027216613 0.12402624 -0.22015935 -0.23624815
-0.028751045 0.030921996 0.15929711 -0.25679827 0.21001628 -0.025322765 0.17185163 -0.06529419
-0.1730712 -0.18345004 -0.09935443 -0.18172024 0.11823493 0.07756165 -0.2113057 0.11712286
-0.22837855 0.10180777 0.11479965 0.094999194 -0.109666064 0.052208126 0.14783585 0.20973536
0.17038903 -0.23938668 -0.119434685 0.094680995 0.23288867 -0.24064368 -0.12139396 -0.19434744
-0.13207568 0.14666238 -0.018273905 -0.049737543 0.012483805 0.2265606 0.07852593 0.22829932
-0.052597 0.049683064 0.23291591 0.10741198 -0.17215016 -0.19182143 0.16615587 0.25461528
-0.22935799 -0.17347196 0.20275676 0.17159036 -0.093534544 -0.13069604 -0.25050104 -0.098251745
0.070664406 -0.11285983 0.13856024 -0.1422469 -0.20855156 0.2533528 -0.118888065 0.07641417
-0.19251998 -0.2080678 -0.16886395 0.22824696 -0.08956587 0.011515111 -0.13853201 0.096885175
0.25455204 0.084073424 0.23628587 0.07603568 -0.04714638 -0.133563 -0.08397877 0.11086714
-0.033437654 0.14729497 0.05984685 -0.10435586 0.17364997 -0.04866542 -0.25608507 -0.18048407
-0.054466173 0.25089434 0.03910294 -0.063099235 0.062250197 -0.053803474 0.22473985 -0.16909337
0.2465969 0.17544964 0.15482101 0.03684619 -0.1256421 0.052996963 0.15058482 0.06455088
-0.25793248 -0.08790681 -0.06923932 -0.20873125 0.1837179 -0.16290209 -0.10615979 -0.24339446
0.05366239 0.084394574 0.054460943 -0.042183593 0.13576832 0.1714283 -0.16934118 -0.23115107
00000000: 0e5d 2dbe 009d 8bbb 2952 66be f0a4 53bd
00000010: 746d df3d 9cec 3bbe 9ad8 2d3e a0c3 d83c
00000020: fca6 22be 70b0 afbc 0000 8f3c 922a 633e
00000030: 5496 26be 9c0c 883d 108f 1a3e a8b8 43be
00000040: a803 263e 8b98 5abe 2aa4 7b3e 5a9c c0bd
00000050: f8d2 1fbe fecb 3c3e df23 803e f0ad 0fbe
00000060: d28d ffbd 7bd1 1abe 7042 d03d 2eb2 4f3e
00000070: e0cd adbc c6f0 ecbd 603d d23c e024 243c
00000080: 5cff dc3d 665a e5bd 2c6f 523e c435 60be
00000090: 2ada 81be 006d 5b3b 1c83 293e 47e6 833e
000000a0: 002f 423e 60ab 713e 66a8 f0bd a404 b23d
000000b0: 380a 1bbe 7084 ac3d 403b b73b f6b1 75be
000000c0: 704b 253d c0c9 ddbc 2c2e 4dbd c4c3 07bd
000000d0: e434 293e 82a8 3ebe 40cc 843c 1e51 81bd
000000e0: 3c01 e83d 3e2f f8bd 9c54 71be 6f3d 78be
000000f0: 2088 5cbe 602f cb3d b0a5 4cbc df62 7fbe
00000100: 5e99 613e 56a6 52be 8544 5dbe 4e63 2a3e
00000110: 0096 543d 51ff 813e 1270 c3bd e885 663e
00000120: 703b c7bc 08c5 0d3e 48cc 45be a8d3 3e3d
00000130: 90db c7bd 1170 42be 1043 57bd 7688 683e
00000140: 3c59 1c3e e9ca 27be c843 51bd 1155 74be
00000150: 88f6 fbbc e0e2 353e b04e 25bc 16c5 3c3e
00000160: 5e4e 7a3e 27a6 6dbe 8423 743e c2ae 6abe
00000170: a200 3c3e b01c c1bc 581d 60bd 6e13 8ebd
00000180: 36f4 1abe 53a2 68be c793 6ebe f2d8 cfbd
00000190: 264d 5ebe 1e86 663e 80eb 4b3b da63 2cbe
000001a0: e681 4abe 5426 0fbe b0f0 3c3e 3313 45be
000001b0: 84b8 663e 04a2 cc3d 7af6 ecbd ee6d 253e
000001c0: 5a9d 343e b214 f1bd 14c2 11be 4800 473e
000001d0: 40fb 483c 9c39 41bd 605f 2c3e 7086 b03d
000001e0: b08d 0cbd 1c46 dabd e0ee a53d fae8 063e
000001f0: e835 243e 5acc 26be 64bb 6ebd 400c 423c
00000200: cabf 253e 50bf 3dbd 7206 0ebe 4e1e 7a3e
00000210: 60f5 de3c 7801 fe3d 7471 61be 09eb 71be
00000220: 5087 ebbc 2050 fd3c c81e 233e 107b 83be
00000230: 820e 573e b071 cfbc e0f9 2f3e f6b8 85bd
00000240: 9439 31be 54da 3bbe 567a cbbd df14 3abe
00000250: 2825 f23d a4d8 9e3d 8560 58be 1cde ef3d
00000260: 11dc 69be 9880 d03d 141c eb3d f08e c23d
00000270: 9a98 e0bd 30d8 553d 4862 173e dec4 563e
00000280: 767a 2e3e c821 75be 2c9a f4bd 1ce8 c13d
00000290: 5e7a 6e3e 4c6b 76be 669d f8bd 0403 47be
000002a0: d93e 07be aa2e 163e 28b3 95bc 98b9 4bbd
000002b0: e088 4c3c 80ff 673e 34d2 a03d 4cc7 693e
000002c0: f46f 57bd 7880 4b3d 8281 6e3e d0fa db3d
000002d0: 2248 30be d66c 44be c424 2a3e ef5c 823e
000002e0: d2dc 6abe a2a2 31be 789f 4f3e 62b5 2f3e
000002f0: 0a8f bfbd 2fd5 05be ac41 80be 3638 c9bd
00000300: 80b8 903d 0e23 e7bd bce2 0d3e 2ca9 11be
00000310: 8a8e 55be 75b7 813e 967b f3bd 087f 9c3d
00000320: f523 45be ba0f 55be acea 2cbe 92b9 693e
00000330: 506e b7bd e0a9 3c3c 56db 0dbe bc6b c63d
00000340: a554 823e b02e ac3d ecf4 713e 98b8 9b3d
00000350: 901c 41bd bdc4 08be 10fd abbd 500e e33d
00000360: ecf5 08bd 7ed4 163e f821 753d 86b8 d5bd
00000370: 4cd1 313e 6455 47bd 951d 83be d1d0 38be
00000380: ec17 5fbd 3975 803e 682a 203d 2c3a 81bd
00000390: 10fa 7e3d 0861 5cbd 3422 663e d026 2dbe
000003a0: e683 7c3e 12a9 333e 6689 1e3e 08ec 163d
000003b0: 53a8 00be 5813 593d e832 1a3e 4033 843d
000003c0: ba0f 84be 7c08 b4bd 58cd 8dbd a5bd 55be
000003d0: 8c20 3c3e cecf 26be 4e6a d9bd 663c 79be
000003e0: 18cd 5b3d 10d7 ac3d 7012 5f3d b4c8 2cbd
000003f0: da06 0b3e e68a 2f3e c667 2dbe deb2 6cbe

fc1.bias f4 [64]
0.20218778 -0.24350908 0.2415815 0.030434906 0.1621755 -0.0011684597 0.10637236 0.027633071
0.25569734 0.008672059 -0.09936474 0.07949415 0.19979939 0.2219586 0.101593494 0.15020391
-0.13367629 -0.20371413 -0.15407243 0.054921 0.083877355 0.20365584 -0.073978096 0.122603536
-0.016354889 0.11241174 -0.24422133 0.03670454 0.16353485 0.15354875 0.073201984 0.13171142
0.15104061 -0.23509176 0.2513208 0.12382397 -0.11750297 0.021158606 -0.13096556 -0.15932336
-0.17053235 -0.12676388 0.052185774 -0.006267339 0.046069026 -0.052756295 0.0069223046 0.02610597
0.11937833 0.17797688 0.1567258 0.02359572 -0.15623751 -0.24101993 -0.14531115 -0.01438126
0.21077141 -0.23531199 -0.23884977 0.22123802 -0.21442808 -0.18408763 -0.118814155 -0.10784082
00000000: 500a 4f3e 725a 79be 2461 773e a052 f93c
00000010: 5611 263e 0027 99ba c0d9 d93d c05e e23c
00000020: c3ea 823e 4015 0e3c be7f cbbd d4cd a23d
00000030: 3698 4c3e 1e49 633e 4010 d03d 0ecf 193e
00000040: 70e2 08be 709a 50be 2ac5 1dbe d8f4 603d
00000050: e4c7 ab3d 288b 503e d481 97bd 9017 fb3d
00000060: b0fa 85bc 2038 e63d 2815 7abe 8057 163d
00000070: ae75 273e e23b 1d3e ecea 953d 5cdf 063e
00000080: 64aa 1a3e e5bb 70be 1fad 803e 6c97 fd3d
00000090: 66a5 f0bd d054 ad3c d61b 06be aa25 23be
000000a0: 08a0 2ebe 64ce 01be c0c0 553d 405e cdbb
000000b0: e0b2 3c3d fc16 58bd 80d4 e23b 30dc d53c
000000c0: a07c f43d 923f 363e ba7c 203e d04b c13c
000000d0: bafc 1fbe eecd 76be 72cc 14be 609f 6bbc
000000e0: 76d4 573e a0f5 70be 0995 74be 388c 623e
000000f0: 0993 5bbe 7881 3cbe d654 f3bd a6db dcbd

fc2.weight f4 [64, 64]
0.0400932 0.0643802 0.015006214 0.005657628 -0.11566813 0.028196022 0.109953985 -0.04409696
0.008544505 -0.08935177 -0.097276494 0.10438578 -0.11509742 -0.1002911 0.02980052 0.05548483
-0.09019798 -0.12071283 0.0014171302 -0.09351888 -0.029853135 0.06425123 0.0014379174 0.031166822
-0.08202581 -0.02273959 0.021594778 -0.09067185 0.066844106 0.12271412 -0.033279985 0.11054775
0.00064107776 0.008637637 -0.029246598 0.052793056 -0.061196163 -0.09245002 0.0523701 -0.014000848
0.00040268898 0.021340355 0.119430944 -0.09113777 0.029253721 0.070343375 -0.0423145 -0.046597958
0.04032354 0.12256287 -0.036956877 -0.045297712 0.06491299 0.06609982 -0.015124187 -0.020503625
0.04363361 -0.016194329 -0.057110757 0.09327221 0.007987127 -0.021218196 -0.054387048 0.021033183
0.006976068 0.109915674 -0.037610218 0.07315077 -0.08316301 0.06347653 -0.119451806 0.043675303
-0.081868604 -0.06094542 0.08560982 -0.122336194 -0.024750426 0.08308561 -0.041367546 -0.04904738
-0.07696301 -0.063864976 -0.040727466 0.07856533 0.0064970404 0.009720847 0.10567804 -0.12414336
-0.044676825 0.03358306 0.082179114 0.08877756 -0.0764292 0.022931919 0.069233924 -0.027651012
0.046277314 -0.10048622 -0.030659303 -0.10515545 0.00583373 -0.0814061 -0.08784065 -0.09509176
0.021179661 -0.10745947 0.11352047 0.022000715 -0.078485 0.05491072 -0.053948134 -0.028674304
0.057822213 0.09057213 0.070639655 0.0385212 0.056033462 -0.11020428 0.09738767 -0.11173332
0.118955284 -0.010101229 -0.092745215 -0.026431859 0.015442073 -0.02702491 -0.08690338 0.04107596
0.103869334 0.12173869 0.09468675 0.04088193 -0.075647414 -0.08882399 0.016417205 0.03341186
0.025393024 0.035981566 0.12419045 -0.056194827 -0.066707164 -0.08486064 -0.008653954 0.049063385
-0.03381729 -0.09977876 0.06265496 -0.035986707 0.04621002 0.06362152 -0.05331379 -0.008253381
-0.052955493 0.078216925 0.019998834 -0.045326933 0.05018486 0.0126246065 0.07287933 -0.10333878
-0.046546713 -0.09417805 0.029944405 -0.03522955 0.0892735 -0.035124764 0.013036162 0.08581664
0.0609608 0.084528565 -0.100970596 0.108208835 0.05924438 0.032173708 -0.02308388 -0.11031921
-0.116385534 0.10563743 0.09292972 -0.069321185 0.0055685937 -0.06569603 -0.11234476 0.0054646283
0.06483814 -0.09460357 -0.048171207 -0.016862601 0.035131425 -0.041887566 -0.057447463 0.09365161
0.005713716 -0.10818261 0.014752567 -0.06825833 0.11351426 0.059800237 -0.092734575 -0.12011108
0.08391301 0.0444078 -0.11174002 0.103823826 0.002668649 -0.049720287 -0.085613415 0.03935443
-0.11154336 -0.045669407 -0.04018019 0.03416513 0.09659092 0.025130078 0.107853815 -0.04153186
-0.075605676 0.09840773 -0.0016804636 -0.072297946 -0.06353758 0.10838127 -0.039723277 -0.09106311
-0.11114615 -0.12211929 -0.00075660646 0.10822998 -0.0342326 0.05908647 -0.11624345 -0.05700335
-0.109097525 -0.08439241 0.088951394 0.02867961 -0.12207447 -0.088193566 0.06351265 0.09482284
0.052732453 0.07027672 -0.034570366 -0.026466936 -0.04001257 0.12099935 -0.11196755 -0.071230516
0.10492782 0.08191016 -0.10431035 -0.05173245 -0.05649756 0.11080794 0.06557943 -0.119056806
00000000: c438 243d c4d9 833d a0dc 753c a063 b93b
00000010: 6ae3 ecbd 58fb e63c 8e2f e13d 049f 34bd
00000020: 40fe 0b3c 10fe b6bd e638 c7bd 36c8 d53d
00000030: 32b8 ebbd 6c65 cdbd 3820 f43c 1044 633d
00000040: b8b9 b8bd 4a38 f7bd 00bf b93a d486 bfbd
00000050: 908e f4bc 2696 833d 8078 bc3a 9051 ff3c
00000060: 26fd a7bd 6048 babc 88e7 b03c 2ab2 b9bd
00000070: 90e5 883d 8a51 fb3d 9850 08bd dc66 e23d
00000080: 000e 283a e084 0d3c 9096 efbc 883d 583d
00000090: d4a8 7abd 7056 bdbd 0882 563d d063 65bc
000000a0: 0020 d339 f8d1 ae3c 3698 f43d 70a6 babd
000000b0: 80a5 ef3c 3010 903d f851 2dbd 80dd 3ebd
000000c0: 4c2a 253d 3e02 fb3d 1860 17bd 188a 39bd
000000d0: 1af1 843d 585f 873d 70cb 77bc 38f7 a7bc
000000e0: 28b9 323d f8a9 84bc f8ec 69bd 8005 bf3d
000000f0: 70dc 023c c8d1 adbc f4c4 5ebd c84d ac3c
00000100: 8097 e43b 781b e13d 2c0d 1abd 12d0 953d
00000110: 5e51 aabd fcff 813d 26a3 f4bd e0e4 323d
00000120: baaa a7bd e8a1 79bd 3454 af3d 668b fabd
00000130: 68c1 cabc ca28 aa3d 0471 29bd e8e5 48bd
00000140: c89e 9dbd a4cb 82bd d8d1 26bd dce6 a03d
00000150: 20e5 d43b 3044 1f3c ba6d d83d e03e febd
00000160: 0cff 36bd 648e 093d 864d a83d 02d1 b53d
00000170: ea86 9cbd b8db bb3c 84ca 8d3d 6084 e2bc
00000180: 488d 3d3d b8cb cdbd 3829 fbbc be5b d7bd
00000190: e028 bf3b 3eb8 a6bd cce5 b3bd 78bf c2bd
000001a0: f880 ad3c b613 dcbd 6c7d e83d d83a b43c
000001b0: bebc a0bd 10ea 603d b8f8 5cbd 60e6 eabc
000001c0: fcd6 6c3d e27d b93d 86ab 903d 68c8 1d3d
000001d0: 5883 653d c8b2 e1bd 3073 c73d 70d4 e4bd
000001e0: d49e f33d a07f 25bc 34f1 bdbd a087 d8bc
000001f0: c000 7d3c 5863 ddbc 66fa b1bd 443f 283d
00000200: 72b9 d43d 2252 f93d 20eb c13d d073 273d
00000210: 08ed 9abd 5ae9 b5bd 607d 863c e0da 083d
00000220: 0805 d03c 6861 133d 9057 fe3d 8c2c 66bd
00000230: c49d 88bd 6acb adbd 50c9 0dbc b0f6 483d
00000240: 0084 0abd ce58 ccbd 3e51 803d cc66 13bd
00000250: b846 3d3d 004c 823d 905f 5abd 3039 07bc
00000260: dce7 58bd 3230 a03d 98d4 a33c bca8 39bd
00000270: a48e 4d3d 70d7 4e3c c241 953d 48a3 d3bd
00000280: c4a7 3ebd 6ce0 c0bd f84d f53c dc4c 10bd
00000290: 06d5 b63d fcde 0fbd a095 553c a2c0 af3d
000002a0: 08b2 793d 501d ad3d acc9 cebd 989c dd3d
000002b0: 3caa 723d 94c8 033d 681a bdbc 0aef e1bd
000002c0: 8a5b eebd 7058 d83d f051 be3d 44f8 8dbd
000002d0: c078 b63b a48b 86bd 0215 e6bd a010 b33b
000002e0: dcc9 843d 84bf c1bd 2c4f 45bd 7023 8abc
000002f0: f8e5 0f3d 4c92 2bbd 084e 6bbd 6acc bf3d
00000300: 203a bb3b d88e ddbd c0b4 713c 06cb 8bbd
00000310: 2a7a e83d 18f1 743d a0eb bdbd ccfc f5bd
00000320: 96da ab3d f4e4 353d f4d7 e4bd 96a1 d43d
00000330: 80e4 2e3b 80a7 4bbd 1656 afbd 1c32 213d
00000340: d870 e4bd d80f 3bbd fc93 24bd bcf0 0b3d
00000350: 76d1 c53d 98dd cd3c 76e2 dc3d 501d 2abd
00000360: 26d7 9abd fe89 c93d 0043 dcba f210 94bd
00000370: fe1f 82bd 00f7 dd3d e0b4 22bd 4c7f babd
00000380: 98a0 e3bd ae19 fabd 0057 46ba aea7 dd3d
00000390: 7c37 0cbd a804 723d 0c11 eebd 587c 69bd
000003a0: 866e dfbd eed5 acbd 262c b63d 80f1 ea3c
000003b0: 2e02 fabd d49e b4bd ec12 823d 7a32 c23d
000003c0: fcfd 573d 3eed 8f3d a899 0dbd 30d1 d8bc
000003d0: 38e4 23bd 82ce f73d 3e4f e5bd 4ee1 91bd
000003e0: 66e4 d63d 84c0 a73d aaa0 d5bd 68e5 53bd
000003f0: fc69 67bd 46ef e23d 824e 863d 0ed4 f3bd

fc2.bias f4 [64]
0.01143384 0.07013318 -0.038779095 -0.028728753 -0.09709419 0.106411725 -0.08855875 -0.051350564
0.050731316 0.04951571 0.08362734 0.0038551688 0.0645006 0.091605395 -0.121193394 -0.006476
0.07437566 0.030000806 -0.084908515 -0.09886366 -0.062901706 0.07256624 0.10916591 0.05982116
-0.045735598 -0.07638395 -0.013347819 -0.0004657656 -0.11162563 -0.08975862 -0.10562596 0.058331773
-0.061926648 -0.08856644 0.06103061 -0.115345195 -0.02034773 0.056099206 0.0716041 0.09996845
-0.104181945 0.10825029 0.056180954 -0.09823555 0.094510555 -0.011471987 0.005180523 0.07267703
0.06603144 0.06104979 -0.12156825 0.044186056 -0.013676256 0.044113874 0.10439883 0.000121980906
-0.08862062 0.035113946 0.050171405 0.00021126866 0.0392925 0.019877553 -0.08542974 0.031096995
00000000: 0055 3b3c fca1 8f3d d4d6 1ebd 9058 ebbc
00000010: 52d9 c6bd 64ee d93d 4a5e b5bd f854 52bd
00000020: a4cb 4f3d fcd0 4a3d d044 ab3d 00a7 7c3b
00000030: e418 843d 9c9b bb3d 3e34 f8bd a034 d4bb
00000040: 4452 983d 40c4 f53c 84e4 adbd 0879 cabd
00000050: 9cd2 80bd 9c9d 943d 6092 df3d 0807 753d
00000060: 4055 3bbd 306f 9cbd d0b0 5abc 0032 f4b9
00000070: fa9b e4bd 5ed3 b7bd 6c52 d8bd 4ced 6e3d
00000080: cca6 7dbd 5262 b5bd 3cfb 793d 1a3a ecbd
00000090: 48b0 a6bc 48c8 653d 2ca5 923d 42bc cc3d
000000a0: 585d d5bd 54b2 dd3d 001e 663d b82f c9bd
000000b0: c08e c13d 00f5 3bbc 60c1 a93b b2d7 943d
000000c0: 7e3b 873d 580f 7a3d c6f8 f8bd 70fc 343d
000000d0: 6012 60bc c0b0 343d 0ecf d53d 00d0 ff38
000000e0: ba7e b5bd a4d3 0f3d 8880 4d3d 0088 5d39
000000f0: 2cf1 203d 40d6 a23c caf5 aebd 20bf fe3c

fc3.weight f4 [6, 64]
0.025463253 0.011711657 -0.052155524 0.07163337 -0.08969851 -0.070549056 -0.11901833 -0.00669007
0.03991592 -0.09660846 0.07436727 0.12101959 -0.07483457 -0.08098231 0.05296144 0.023267373
-0.1130601 -0.09712945 -0.07416579 0.11013277 0.06171234 -0.045057938 0.096820876 -0.082268685
0.010497555 0.011257142 0.04441549 -0.01994653 -0.08158043 -0.12089892 -0.111061454 -0.043015957
0.026974112 0.07335694 -0.009372592 0.06853591 0.049839213 -0.027094215 0.11261766 0.07861641
0.10590181 0.07538003 0.013040349 0.11377913 -0.02942121 0.04301691 0.089313984 -0.12436277
-0.019059509 -0.08884813 -0.056797653 -0.092221946 0.04427728 0.029749766 0.047397897 0.09326866
0.08728251 -0.07282269 0.118954286 0.09552717 -0.08933443 -0.09347458 -0.042659953 0.07850893
-0.039013118 0.04865031 0.06200804 0.010370448 -0.08224468 -0.11467835 0.011442974 -0.045289412
0.04189773 -0.06045249 -0.114436254 -0.085272506 0.026226327 0.02415879 0.060978085 -0.001272276
0.11968422 -0.050788715 -0.12146036 0.118100494 0.018324718 -0.10218257 0.115991205 0.03819695
-0.11861597 -0.099735335 -0.0024891049 -0.03560181 -0.0077715814 0.10070966 -0.075485095 0.113991305
0.004727632 -0.034093052 -0.112357974 -0.116263226 -0.09215945 0.120833084 -0.027927741 -0.025204688
0.03594899 0.020094708 0.11178076 0.09150268 -0.091970906 -0.081398666 -0.118457034 0.03244649
0.104739994 0.01501821 0.013052136 -0.07050894 0.07245636 -0.049433768 0.06982359 -0.077636376
-0.10965882 0.023123875 0.010667011 0.0513936 0.081179336 0.02914089 0.05325015 -0.0011763126
-0.04307419 -0.077032685 0.09675045 -0.0098349005 -0.05239536 -0.012730956 -0.11412409 -0.03485696
0.0541569 0.028841406 0.043936476 -0.08875632 -0.1059867 -0.05190742 0.09056449 0.0827426
0.07658866 0.12124354 0.09709233 -0.04410529 0.07638849 0.076315 0.04932663 0.090320095
-0.09638569 -0.062433556 0.104512066 0.056131005 -0.10903153 -0.04286331 -0.0988538 -0.05604191
-0.028036416 -0.089693844 -0.028935358 0.03250365 -0.10215701 0.11128074 0.05377598 -0.09356953
0.019016936 0.04411474 -0.11301093 0.00509651 0.116140544 -0.028997451 0.1110149 0.097140655
0.08164744 0.08042699 -0.07066694 0.0685256 -0.038909793 0.098612934 -0.003668502 -0.019809425
0.0927282 -0.030642897 -0.03159821 0.06314844 0.12468992 -0.015358672 0.032378003 0.060979843
0.052256137 -0.043599293 -0.08114919 0.10416335 0.022894934 0.09937072 0.022796676 -0.022700086
-0.09099017 0.09245798 0.07161847 -0.09555118 -0.041496992 0.10788201 -0.08998649 -0.0021815598
-0.00036092103 0.07408452 0.07800332 -0.032324925 -0.0025941133 0.02563025 0.1109335 0.0811844
-0.08680417 -0.041351378 0.0036417395 -0.011650845 -0.039797172 -0.11438711 -0.052617997 0.022698909
0.08595218 -0.10744202 -0.08598898 -0.11838837 0.08032934 -0.005379528 0.006834641 0.08872689
-0.056548506 0.06297696 0.049492657 -0.08141878 0.058403328 0.09599322 0.070196375 0.0990814
0.02618587 -0.04558344 -0.004734054 0.0380691 0.09927732 -0.09479599 -0.02703607 -0.059719265
0.11123666 -0.11173189 0.06870146 0.11596288 -0.03689915 -0.10153316 0.06406331 0.006273687
00000000: 5098 d03c 40e2 3f3c 08a1 55bd 84b4 923d
00000010: dab3 b7bd 067c 90bd e2bf f3bd 6038 dbbb
00000020: e07e 233d a8da c5bd de4d 983d 1ed9 f73d
00000030: de42 99bd 0eda a5bd 18ee 583d 389b be3c
00000040: 0e8c e7bd ceeb c6bd 3ce4 97bd 4a8d e13d
00000050: 14c6 7c3d ac8e 38bd 064a c63d 7c7c a8bd
00000060: f0fd 2b3c e06f 383c 04ed 353d e866 a3bc
00000070: a413 a7bd da99 f7bd 3074 e3bd 8031 30bd
00000080: d0f8 dc3c 2a3c 963d 808f 19bc 8e5c 8c3d
00000090: 3424 4c3d b0f4 ddbc 16a4 e63d a401 a13d
000000a0: 0ce3 d83d d860 9a3d 30a7 553c 0805 e93d
000000b0: c004 f1bc 8032 303d 40ea b63d e8b1 febd
000000c0: b022 9cbc 02f6 b5bd a8a4 68bd dcde bcbd
000000d0: 185c 353d c8b5 f33c 4c24 423d a403 bf3d
000000e0: 2cc1 b23d 1024 95bd 4e9e f33d c0a3 c33d
000000f0: f8f4 b6bd 9a6f bfbd 34bc 2ebd 4ac9 a03d
00000100: 38cc 1fbd 8c45 473d 24fc 7d3d d0e8 293c
00000110: e66f a8bd 7cdc eabd 507b 3b3c 6481 39bd
00000120: f49c 2b3d 089d 77bd 8e5d eabd 5aa3 aebd
00000130: 98d8 d63c a8e8 c53c 28c4 793d 80c2 a6ba
00000140: 001d f53d d407 50bd 36c0 f8bd acde f13d
00000150: b81d 963c 1845 d1bd cc8c ed3d 6874 1c3d
00000160: eeec f2bd 0a42 ccbd 4020 23bb 34d3 11bd
00000170: c0a8 febb de40 ce3d ee97 9abd 4674 e93d
00000180: 40ea 9a3b 28a5 0bbd f01b e6bd 6a1b eebd
00000190: 18be bcbd 5677 f73d b8c8 e4bc 107a cebc
000001a0: 403f 133d a89d a43c 50ed e43d c265 bb3d
000001b0: 3e5b bcbd 58b4 a6bd 9a99 f2bd 9ce6 043d
000001c0: ec81 d63d f00e 763c a0d8 553c fe66 90bd
000001d0: 0064 943d 107b 4abd acff 8e3d d2ff 9ebd
000001e0: ce94 e0bd 486e bd3c b0c4 2e3c 1882 523d
000001f0: 5a41 a63d e0b8 ee3c d41c 5a3d 802e 9aba
00000200: 906e 30bd 50c3 9dbd 1a25 c63d 9022 21bc
00000210: 849c 56bd 8095 50bc e4b9 e9bd 2cc6 0ebd
00000220: a0d3 5d3d d044 ec3c bcf6 333d e0c5 b5bd
00000230: 8e0f d9bd e09c 54bd e079 b93d f474 a93d
00000240: 84da 9c3d 884e f83d 58d8 c63d c0a7 34bd
00000250: 9271 9c3d 0a4b 9c3d b80a 4a3d bef9 b83d
00000260: dc65 c5bd 54ba 7fbd 6c0a d63d a0e9 653d
00000270: ec4b dfbd 7091 2fbd dc73 cabd 348c 65bd
00000280: a0ac e5bc 68b1 b7bd d809 edbc 8c22 053d
00000290: b237 d1bd 28e7 e33d 3444 5c3d 62a1 bfbd
000002a0: 68c9 9b3c a8b1 343d 4672 e7bd a000 a73b
000002b0: 18db ed3d 108c edbc c85b e33d aef1 c63d
000002c0: c636 a73d e8b6 a43d d4b9 90bd 2657 8c3d
000002d0: e05f 1fbd 94f5 c93d 406b 70bb 6047 a2bc
000002e0: 48e8 bd3d d006 fbbc 206d 01bd f853 813d
000002f0: 6e5d ff3d f0a2 7bbc cc9e 043d 00c6 793d
00000300: 880a 563d 2c95 32bd 8c31 a6bd 9853 d53d
00000310: 288e bb3c e082 cb3d 18c0 ba3c 88f5 b9bc
00000320: 0e59 babd 9c5a bd3d b4ac 923d 56b0 c3bd
00000330: c0f8 29bd 3ef1 dc3d d64a b8bd 80f8 0ebb
00000340: 003a bdb9 a0b9 973d 34c0 9f3d 2467 04bd
00000350: 0002 2abb 88f6 d13c 1a31 e33d 0244 a63d
00000360: 62c6 b1bd 1060 29bd 40aa 6e3b 30e3 3ebc
00000370: 5c02 23bd ca43 eabd f885 57bd 10f3 b93c
00000380: b207 b03d 900a dcbd fe1a b0bd 9a75 f2bd
00000390: b683 a43d c046 b0bb 20f5 df3b 72b6 b53d
000003a0: 689f 67bd 10fa 803d d0b8 4a3d e4be a6bd
000003b0: 5438 6f3d 1898 c43d 1ec3 8f3d 30eb ca3d
000003c0: c083 d63c b4b5 3abd 2020 9bbb 58ee 1b3d
000003d0: e851 cb3d 6624 c2bd c07a ddbc 309c 74bd
000003e0: 0cd0 e33d b0d3 e4bd 5ab3 8c3d f27d ed3d
000003f0: 9023 17bd 9ef0 cfbd a033 833d 8093 cd3b

fc3.bias f4 [6]
-0.04236695 0.0058003366 -0.097268164 0.113499224 0.022772983 -0.10766731
00000000: f888 2dbd c010 be3b 8834 c7bd 4872 e83d
00000010: 688e ba3c ae80 dcbd
